app/src/main/assets/phishing_light.tflite (tflite, 7188 bytes, 7 tensors)

arith.constant f4 [1, 8]
00000000: dd22 863f 2ed1 5d3f 7d93 f33f 0ca5 0a40
00000010: 4c91 febf 7a6b 0240 0c5d cd3f cdbb 753f
1.047939 0.8664731 1.9029385 2.1663237 -1.9888091 2.0378098 1.6044021 0.95989686

arith.constant1 f4 [8, 16]
00000000: 0b97 42bf 1125 863f e1aa a3be d194 543f
00000010: cd5f ba3e 9916 30bf d322 0ebf 76ae 8f3d
00000020: d213 0abf 99bd babd d81f 19bf b881 93be
00000030: 0420 2e3e 8404 9b3e 6fd8 033f c212 95be
00000040: 8a0b c43d 3c57 2e3f f24f e2be ee08 3e3f
00000050: d4a2 323f eeb8 733e 0ac7 8b3e 2e27 663e
00000060: 7ffd 813e 8168 263d fd11 32bf 8ded b03e
00000070: 5b1a 783e ee4d 103f 6684 a63e 4be4 dfbe
00000080: f46e 9e3d 4225 873f 700e d9be 5320 313f
00000090: e2a7 7d3e e2c8 7a3e 522e 773e a4e2 7d3d
000000a0: cc33 653e eb0a 873f bf91 243f e2ec 6c3e
000000b0: 21e4 13bf e8cf 00be 4f3f a3bf 1e6f 873e
000000c0: f691 b1bf e35b ac3e 380e 923e e907 3ebf
000000d0: 4ffa f83e d47f aebf f1bf bfbf 8d9e 8d3e
000000e0: 24fc 9ebf 2bc4 97bf 8cff bd3d 4cd5 8bbf
000000f0: 9f57 c4bd f25a c33f e6e4 07bf 3404 973e
00000100: b82c b43f e7a7 0bc0 1507 b0be 1872 51bf
00000110: 48e9 9abf e9f1 8f3f e0e1 843f ee8c 9bbf
00000120: 79fe 3c3f 128b b4bf 0216 a7bf adc0 263f
00000130: fc7a f3bf 9e32 d7bf eb6b 12bf 012c 79bf
00000140: 9c00 59bf e6a7 5a3d e8f9 80be 79fa 57bf
00000150: 918c a9be 5996 77bf 7db9 66bf df91 193f
00000160: 200a 2abf 3a69 a73e 27bf 113f 1be0 12bf
00000170: bf6a 853f 9564 a2bf 41d1 34be 04d0 bc3e
00000180: 4d1e 87bf 6da9 513f c5b2 bfbe 241d 6bbf
00000190: b213 243d a9ec 8ebf 51a5 8bbf 9ced 34bf
000001a0: ce3e 70bf a130 673f 3663 0f3f e897 59bf
000001b0: 5151 22bf de0b b1bd 1356 3b3f 279c c73d
000001c0: 6d06 51bf a038 d23e 2ed0 b3be d4de 0a3f
000001d0: bc09 883e 04c5 33bf 86bc 31bf 62fa 573e
000001e0: 1c65 1fbf 3c25 0f3f 5bf7 a53d bfae e1be
000001f0: 3f61 033e 40b8 b73d be10 423f f34a fe3d
-0.76011723 1.0480062 -0.31966308 0.83039576 0.36401215 -0.6878448 -0.5552189 0.07015698
-0.53936493 -0.09118194 -0.59814215 -0.28809905 0.170044 0.30276883 0.51502126 -0.29115874
0.095725134 0.6810186 -0.44201618 0.74232376 0.69779706 0.23801014 0.27300292 0.22475883
0.25388715 0.040627006 -0.695587 0.34556237 0.24228804 0.5636891 0.32522887 -0.4372886
0.077360064 1.0558245 -0.42393827 0.6918995 0.24771073 0.24490693 0.24138764 0.06198372
0.2238304 1.0550207 0.6428489 0.23137239 -0.5776997 -0.1257931 -1.2753695 0.26451963
-1.3872669 0.33663854 0.28526473 -0.7423082 0.4862847 -1.363276 -1.4980451 0.27660027
-1.2420697 -1.1856741 0.09277257 -1.0924468 -0.09587025 1.5262129 -0.53083646 0.29495394
1.4076147 -2.182123 -0.34380403 -0.8181472 -1.2102442 1.12457 1.0381432 -1.2152383
0.73825794 -1.4104941 -1.3053591 0.6513775 -1.9021907 -1.6812322 -0.5719592 -0.9733277
-0.84766555 0.053382777 -0.25190663 -0.84366566 -0.33115056 -0.9671379 -0.9012678 0.59988207
-0.664217 0.3269747 0.569323 -0.5737321 1.0423201 -1.2686945 -0.17657949 0.36877453
-1.0556122 0.8189915 -0.37441078 -0.9184134 0.040057845 -1.1165973 -1.0909826 -0.70675063
-0.9384583 0.90308577 0.5601076 -0.84997416 -0.6340533 -0.086448416 0.73178214 0.097465806
-0.8165043 0.41058826 -0.35119766 0.5424626 0.26569927 -0.70222497 -0.6942829 0.21091607
-0.62263656 0.5591619 0.0810382 -0.44078633 0.12830065 0.0897069 0.75806797 0.12416639

arith.constant2 f4 [16, 32]
00000000: b8ea 37bf a344 8c3e 9646 863d e5dd a33d
00000010: f8b1 98bf a788 9abf 5831 813d ddb8 8abf
00000020: 6d10 003e edd1 0b3e 62e8 273f 2c1d 98bd
00000030: 7d96 9bbf 5049 febd 1e34 eabf bc7a 103f
00000040: a4eb dbbf bc39 9dbf 4732 adbe e62e 8cbe
00000050: a3b5 98bf 2404 01c0 dee7 65bf 611c bdbf
00000060: 388b 0cbe e908 a8bf 4fe9 b33a 4844 9ebf
00000070: 30cb 47be 2c21 afbd d270 84bf 9935 0c3e
00000080: 16fd 8fbd 0009 bf3d 569e d8bc 834e 353d
00000090: 471d 3fbe d8ef 003f 83df 91bd 07f5 20bf
000000a0: e65b 58bd 0f76 b83e 58d3 bfbd 0ab8 9fbe
000000b0: 9ea2 f6be e051 b7bb 24a2 b9be 3ada 73be
000000c0: 2ba0 d23e 0866 06bb b956 b3be bfce 203f
000000d0: a360 a8be be94 a83e c012 17bd b73a 17be
000000e0: 03c8 d73e f3a4 083e cdd9 3e3f 0d62 fd3e
000000f0: 7a96 fbbd e852 31be a72c 8dbd bf3a cebd
00000100: 3cc4 30be 7a5f f0bd 05d2 b13d a47a a0bd
00000110: 532f 49bd 78bf 283d 93d9 8bbc c714 95bd
00000120: d287 ffbd 1e8f a0be 68ff 58be 7728 833e
00000130: e443 89be 79d8 093e 0303 9fbe 58bf 0e3e
00000140: 32e7 c8be ae1a 81be c354 28be 5c1a 4fbd
00000150: 22b2 80be 302f 19be ca0c 82bc 434c 003e
00000160: 7263 47bd 5373 5e3e a717 9dbe c367 5cbe
00000170: 8747 26be 6148 953e 1f34 0bbc 2bdf 813c
00000180: f408 963e 986c ef3d dfbd adbd 4725 3cbf
00000190: 5e47 8e3f d478 8d3f d295 89bd 4b2c b73c
000001a0: 5c7f 8dbe 5a46 9ebd 9d20 dbbf 10f2 acbc
000001b0: 5576 523f 61bb a73e 46fc 383f 8899 17c0
000001c0: d6b4 c03e 3909 273e 0df2 52be 9f3d 8e3d
000001d0: d921 053f 7ed0 353f 680a d13e accf d63f
000001e0: 6ce3 b93e 1bdf 5d3f 2d17 bbbd d0b3 7ebe
000001f0: ea4c 083e 30f0 fdbc d768 ea3e 2db6 36be
00000200: 7e60 323f 08b5 2ebd 2709 ac3d 0e30 943e
00000210: e2b2 77be 599c bbbe 303a 363d 0e5d 2d3f
00000220: 17fb 403e 7fb6 14be c975 d43e 3097 ef3d
00000230: fa28 ed3e 405f c93c 6978 8abf 4f43 133e
00000240: 3cd0 e0be 9e9c 86be d09e 6b3e 84a1 0fbf
00000250: d43a c03d 7330 6bbe b6d7 8b3f 513b 373e
00000260: 1f7c 92bb 141a 0dbf 1b86 823e 3595 bf3e
00000270: 3139 793e fa7d 793e 1662 393e 402f e73d
00000280: f189 f4be 9633 1ebe 3d3a 6e3e 996a 2a3e
00000290: 0868 83bf a652 6dbf 8a72 373e e076 52be
000002a0: bbac 343e be3a a93d a35a 863f 78ca 9ebd
000002b0: 53ee 6fbf 2f49 1f3e b680 72bf a997 5d3f
000002c0: c28c 85bf 0d12 7cbf 2a2d 0cbe 96fa 7fbe
000002d0: 5e6a 1ebf 546f 89bf cf61 73bf aa71 87bf
000002e0: 406d 52bf df16 98bf 4a46 c2bd dbd9 eebf
000002f0: 205a 1dbf 463f 723e 17af 97bf 0e08 023e
00000300: f2de a2be 9d3f 18be bad8 1bbd 498d ea3e
00000310: ad56 5dbf 33de 9fbf 77e0 e73d 696a adbe
00000320: 796e 813e 61d4 e73d b3cc 653f 98d5 56be
00000330: 25a8 e4be adf2 d6bd 8e17 b0bf dd2c 703f
00000340: 2bbe a1bf 9850 3cbf 4699 453e fdbe 11be
00000350: 5f07 50bf 35ff fdbf 46ac d7bf ec74 5fbf
00000360: b642 3cbf 4343 aabf e758 d0bb 1748 18bf
00000370: 2df1 b8be 664b 4e3e 788a b0be 8f70 213e
00000380: b6fe 863e 331c 9f3e 6559 55be fe39 75bf
00000390: 6828 443f 0771 7bbf cb9d a7be 48b6 b03e
000003a0: 3689 2bbf 7864 c4be 540a c8bf a0bd af3d
000003b0: 0c78 1c3e 79e1 64be 368e ee3e 2ef1 b5bf
000003c0: 4199 95be b8e8 c53d 08df bdbe 3a5a 4b3d
000003d0: 79d3 1bbd e55f aebe 1bc1 9d3d e991 8e3f
000003e0: 63c4 39bd f851 223f 4a3f 99be f5fc ef3e
000003f0: 28cc 0d3e db80 9abe 7796 8a3d 8d9d 67bf
-0.7184253 0.27396116 0.06556432 0.080013074 -1.1929312 -1.2072953 0.0630824 -1.0837666
0.12506266 0.13654299 0.65588963 -0.07427439 -1.21553 -0.12416327 -1.8297155 0.5643728
-1.7181287 -1.2283244 -0.3382742 -0.2737953 -1.1930431 -2.0158777 -0.89806926 -1.4774286
-0.13724983 -1.3127719 0.0013726148 -1.2364588 -0.19511104 -0.08551249 -1.034693 0.13692321
-0.07030694 0.093278885 -0.026442688 0.044264328 -0.18663512 0.5036597 -0.071227096 -0.6287388
-0.052822016 0.36027572 -0.093664825 -0.31195098 -0.48170942 -0.005594477 -0.36256516 -0.23813716
0.41137823 -0.0020507593 -0.35027102 0.6281547 -0.32886228 0.3292598 -0.036883116 -0.14768492
0.42144784 0.13344173 0.7455109 0.4948887 -0.122845605 -0.17316782 -0.068932824 -0.10069799
-0.17262357 -0.11736961 0.08682636 -0.07835892 -0.049117398 0.041198224 -0.01707152 -0.072793536
-0.124770775 -0.3135919 -0.2119118 0.2561681 -0.2680961 0.13461484 -0.31056985 0.1394018
-0.39238888 -0.25215667 -0.16438584 -0.050562248 -0.25135905 -0.14959407 -0.015875239 0.12529092
-0.048678823 0.2172368 -0.30682108 -0.21523957 -0.16238223 0.29156783 -0.008496313 0.015853485
0.29303706 0.116906345 -0.08483481 -0.7349438 1.111553 1.1052499 -0.06718029 0.022359988
-0.2763623 -0.07728262 -1.7119328 -0.021111518 0.8221181 0.32760146 0.7225994 -2.3687458
0.37637967 0.16312112 -0.20600148 0.06945347 0.5200477 0.7102126 0.40828252 1.6782126
0.36306322 0.86668557 -0.0913528 -0.2487328 0.1331059 -0.03099832 0.4578311 -0.17842932
0.69678485 -0.042653114 0.08400183 0.28942913 -0.24189332 -0.3664272 0.044489086 0.67720115
0.18845783 -0.14522742 0.41496113 0.116987586 0.46320325 0.024581552 -1.0817996 0.14381145
-0.4390887 -0.26291364 0.23009801 -0.5610583 0.093862206 -0.229677 1.0925205 0.17893721
-0.004470363 -0.5511792 0.2549294 0.37418523 0.24338223 0.24364462 0.18103823 0.11288309
-0.4776149 -0.15449366 0.23264404 0.16642226 -1.0266123 -0.92704237 0.17914787 -0.2055316
0.17644016 0.08263157 1.049641 -0.077534616 -0.9372303 0.15555261 -0.9472765 0.8655954
-1.0433581 -0.98465043 -0.13689104 -0.24997935 -0.61881053 -1.07371 -0.9507112 -1.0581563
-0.8219795 -1.188198 -0.09486063 -1.8660234 -0.61465645 0.2365695 -1.1850308 0.12698385
-0.3181072 -0.14868017 -0.038048483 0.45810917 -0.8646038 -1.2489685 0.1132211 -0.33870247
0.25279596 0.11319805 0.8976547 -0.20979917 -0.44659534 -0.104955055 -1.3757188 0.93818456
-1.263616 -0.73560476 0.1929675 -0.14233012 -0.8126125 -1.9843508 -1.6849449 -0.87287784
-0.7353929 -1.3301777 -0.0063582542 -0.59485 -0.36121503 0.2014595 -0.34480643 0.15765594
0.26366204 0.31076202 -0.20834883 -0.95791614 0.76624155 -0.9821934 -0.32737574 0.3451407
-0.6700624 -0.38357902 -1.5628152 0.0858109 0.15280169 -0.22351636 0.46592873 -1.4214227
-0.29218486 0.09663528 -0.37084222 0.049646594 -0.038043473 -0.34057537 0.077028476 1.1138278
-0.045353305 0.63406324 -0.29931098 0.46872678 0.1384741 -0.30176434 0.0676698 -0.9047478

arith.constant4 f4 [8]
00000000: c9a3 953e 0e05 bcbd fc58 57bd 2843 e93d
00000010: 0383 463f bc84 243e a04a fb3d cb9b b23e
0.2922652 -0.091806516 -0.052575096 0.11389762 0.7754366 0.16066259 0.12270093 0.34884486

arith.constant5 f4 [16]
00000000: 85e7 033c c079 d7be 4e0d 6bbe 22d4 cc3d
00000010: 8ec7 24be 5b64 32bc 0919 483c acf1 603d
00000020: 6750 bb3c 8693 e13a 470f 093c f789 c83c
00000030: aa38 5dbe e6b0 1f3d a34f 0c3d c753 983c
0.008050804 -0.42085075 -0.22954294 0.100013986 -0.16091749 -0.010888184 0.012213 0.054917976
0.022865487 0.0017210103 0.008365459 0.02447985 -0.21603647 0.038987063 0.034255635 0.018594636

sequential_1_1/dense_2_1/BiasAdd/ReadVariableOp f4 [32]
00000000: 71a1 bebe 0000 0000 6ff3 45be 6782 833e
00000010: 9960 5ebf 1ed8 0cbf 26b9 293d 4d87 88bd
00000020: 852e 123e dd46 dabd 5f22 bd3e 0000 0000
00000030: 2ccf c93e c085 83bc 1a24 7f3e 4c40 e93e
00000040: b2af 063c f44f 60be 80c3 8fbe 53d2 8ebe
00000050: fe65 5abf 65b3 19bf a813 d8be 9ac3 56ba
00000060: ce39 313d 0716 dabe decc f3be 4e80 d6be
00000070: e400 f53d 0000 0000 30b8 8abe b305 463e
-0.37232545 0.0 -0.19331144 0.25685427 -0.86866146 -0.5501727 0.041436337 -0.066664316
0.14275558 -0.10658047 0.36940286 0.0 0.39415872 -0.016054988 0.24916115 0.45556867
0.0082206 -0.219055 -0.28078842 -0.2789484 -0.8531188 -0.6003936 -0.42202497 -0.0008192599
0.043268017 -0.4259493 -0.4761724 -0.41894764 0.119630605 0.0 -0.2709365 0.19338112

sequential_1_1/dense_2_1/MatMul f4 [32, 15]
00000000: eceb 823e 9f65 853d 8017 313e 2030 473e
00000010: 22a2 3ebd d479 6ebe a0ae dc3e 9f66 91bf
00000020: 934d b4bc be66 2e3e 4fe2 94be ff97 8bbe
00000030: ee27 833f ce75 27bf e110 893d 5006 043d
00000040: e40f fa3d b4e8 913e f4b5 1d3e c079 f13b
00000050: 466b 98be 30d5 71bd 0477 e5bd c092 8a3c
00000060: d48e 29be 687b 39bd 2066 303c 0093 803e
00000070: 36d2 63be e28d a5be 27be f3be 14e4 6a3e
00000080: 3559 03be 7d47 423e b7d9 5fbf 2fa3 9d3d
00000090: ab1e 96bd 8830 493f b22d 1abd 77fa 14bf
000000a0: e933 7f3e eef5 edbf be5c 47c0 fe4b 5bbf
000000b0: c1de aa3c cdc3 ca3e 8321 debe e9de 10bd
000000c0: 492b 88be 2a5d bfbe 5078 223e 262a 94be
000000d0: 7cb7 723e b421 24b8 0fc7 3abd b741 38bf
000000e0: fa5c 123d a57e 8fbd 33b7 963d fc5a fb3d
000000f0: 3f0c 11be 056c cf3d 569b f13c 89f5 983e
00000100: b0f7 c13e 9679 0dbd 4e5d 11be beb2 23bf
00000110: 5d7b cebc 1022 2a3e 04d2 f5bd 965a 813e
00000120: dcb3 9e3d fe8d f23e 6e9b 663e 0e14 033f
00000130: 804c 5fbe c3be 54bc f012 fd3c 2f5a fb3e
00000140: cf48 6fbd 3a2a e43d a35d aebc 2a6b 913c
00000150: 438f 3e3e 6227 e23e 36e9 313f 979f 42bc
00000160: 5daa 15be 3e3f 27be 94fc 8b3e 7d8f 61be
00000170: 5aab d1bd 4489 50c0 edbe 3cbf 14f4 b6be
00000180: 9f85 65be 432d 463f 1143 f1bd 3688 8ebf
00000190: 92be 6fbe e44a 3cbf 880c b1bf bec8 b6be
000001a0: 187f f53d ec6c 403f f072 0c3e 7d1e f83c
000001b0: 69a4 93bd 88be c43e eeeb 27be f7c2 9abe
000001c0: 5563 06bf 5a2c db3c a232 4e3e 8d2b 003f
000001d0: 3852 983d 33c6 183f 2280 9bbe 6ce9 8fbe
000001e0: b892 683e 942c a9be 914c 0ebe 5a14 38bf
000001f0: f94b 22bf bdf4 73bc 84b2 9bbe bb8f 493f
00000200: a2e6 14bd edb1 77bf 0ecf d8be ce79 90be
00000210: 7d7d cbbe 5cb1 083f 88f5 f73d 60c9 1e3d
00000220: ac1f 20be d5d5 0fbe d642 2cc0 a177 823e
00000230: 159f 50be afe9 93bd fbb5 3a3f 8652 6dbf
00000240: c8a5 29bd a72b 84bd 763f 9dbf 0d6c c9bf
00000250: efda 36bf c805 fd3d 935b 2abe ffa5 c3be
00000260: e1a3 28bf 955c fd3c 69e7 1bbf fd28 193e
00000270: 71a0 663d e5f8 c13e c352 033d 96dd 0bbf
00000280: d85a 55bf 15ba b83d 1adb c8bb fe90 383d
00000290: 767a b03d d850 52be 8cf6 a2bd 78bc 323e
000002a0: afc1 9abe caa5 90be 945d 703e 86cb 0c3e
000002b0: 5fce 30be c357 89be f9c9 63be 2f63 8fbe
000002c0: e564 04be 1ac9 883e 1044 53bd a28e 46be
000002d0: 1800 083f 9373 2cbd da26 c63d 034b bf3d
000002e0: a0a1 cbbe 0311 a2be d93b 4ebe 3608 82bf
000002f0: bc16 61bc 9c6e e93c 7871 9bbe 556a e03e
00000300: 499a 26be 8524 9dbe 1835 f9bd c7c4 79bb
00000310: a176 85be 223a abbe 708a 683e 408a 223c
00000320: 17f5 21be 413c aebd cd6c f8bb 62ac 56be
00000330: 4945 9ebe 2004 64bc 95f5 963e cf7b 8abe
00000340: cf6a 053e c3a7 6abe 812f 2c3f b588 273e
00000350: f1c4 293d abd4 0f3d 392b 57be a569 fa3c
00000360: cbd3 84be 1630 25bf 10bb bbba 7289 983d
00000370: 9ddf dfbd 3c9b 7abf 2145 603f ad86 a4be
00000380: 36e3 2abe 8eab bbbd d45e f9be 6357 933a
00000390: ea30 7abd 397b 08bd 8d57 62be b408 16bc
000003a0: 8591 993d 24ef 893c ef30 1dbf 9848 79bf
000003b0: ea52 533e cf77 2d3e 0a9c 6a3d a235 cc3d
000003c0: f282 4f3f 33fb 7c3e 90ba 863d c17a 0c3c
000003d0: 7c18 06be e774 cfbe e3e9 7abe e62f 5bbf
000003e0: a006 a1bb 2fc0 0d3e bb10 fcbb 7259 a5bf
000003f0: d06d 6c3f 5282 98bf 10d0 01be 1479 a0bc
0.2557062 0.06513523 0.17294121 0.19451952 -0.04654134 -0.23288661 0.43101978 -1.1359442
-0.022009647 0.1703138 -0.2907891 -0.272644 1.024656 -0.6541413 0.066926725 0.032232583
0.12210062 0.2849785 0.15401441 0.00736925 -0.29769343 -0.059041202 -0.11204341 0.016915679
-0.16558391 -0.045283705 0.010766536 0.25112152 -0.22248158 -0.3233481 -0.47606012 0.22938567
-0.12826999 0.18972583 -0.8744158 0.076971404 -0.07330068 0.7858968 -0.037641235 -0.5819468
0.24922146 -1.8590677 -3.1150355 -0.8566283 0.02085817 0.3960251 -0.43384942 -0.035368834
-0.26595524 -0.37375766 0.15866208 -0.28938407 0.23702806 -3.9132035e-05 -0.045599993 -0.7197527
0.0357332 -0.070065774 0.07359161 0.12273213 -0.14164828 0.10128025 0.029493015 0.29874828
0.37884283 -0.03453978 -0.14195749 -0.63944614 -0.025205309 0.16614556 -0.12002948 0.25264424
0.07749149 0.47373956 0.22520229 0.51202476 -0.21806526 -0.012984934 0.03089282 0.49092242
-0.058419045 0.111408666 -0.021284884 0.017751295 0.18609338 0.44170672 0.69496477 -0.0118788695
-0.1461577 -0.16332719 0.2734114 -0.22027393 -0.10237761 -3.258378 -0.7372883 -0.35733092
-0.22414254 0.77412814 -0.1178037 -1.1135318 -0.2341254 -0.73551774 -1.3831949 -0.3570003
0.11987132 0.751662 0.1371572 0.030287975 -0.07209093 0.38426614 -0.16398594 -0.3022687
-0.5249532 0.026754547 0.20136502 0.50066453 0.07437557 0.5967743 -0.30371195 -0.28107774
0.22712219 -0.33041823 -0.13896395 -0.71906054 -0.63397175 -0.014889893 -0.30409634 0.7873494
-0.03635276 -0.9675587 -0.4234547 -0.2821793 -0.39744177 0.5339563 0.12107378 0.038766265
-0.15637082 -0.14046414 -2.6915793 0.25481895 -0.20373185 -0.07222306 0.7293393 -0.92704046
-0.041417867 -0.064536385 -1.2284992 -1.57361 -0.71427816 0.12354618 -0.16636495 -0.38212582
-0.6587506 0.030927936 -0.6089998 0.14957042 0.056305353 0.37885204 0.03206135 -0.5463499
-0.8334174 0.09019867 -0.0061296346 0.04506015 0.086171076 -0.20538652 -0.07957181 0.17454708
-0.30225894 -0.28251487 0.23473197 0.13749513 -0.17266224 -0.2682477 -0.22245015 -0.2800536
-0.12929113 0.26715928 -0.05157858 -0.19390348 0.53125143 -0.042102408 0.09675379 0.09340479
-0.39771748 -0.31653604 -0.20140018 -1.0158756 -0.01373833 0.028495125 -0.30360007 0.43831125
-0.16269793 -0.30691925 -0.1216833 -0.0038111673 -0.2606707 -0.3344279 0.2270906 0.009920657
-0.1581615 -0.08507586 -0.0075813294 -0.20964196 -0.30912235 -0.013916999 0.2948424 -0.27047583
0.13029025 -0.22915559 0.67259985 0.16360743 0.041447584 0.035114925 -0.21012582 0.030567953
-0.25942835 -0.645265 -0.0014322717 0.074480906 -0.10931323 -0.9789312 0.8760548 -0.32134
-0.16688237 -0.09163581 -0.4870516 0.0011241253 -0.061081804 -0.03332064 -0.2210371 -0.009157348
0.07498459 0.016837664 -0.6140279 -0.97376394 0.20637098 0.16940235 0.057277717 0.09971167
0.8105918 0.247052 0.06578553 0.008574189 -0.13095278 -0.40518877 -0.24503283 -0.8561996
-0.00491412 0.13842843 -0.007692424 -1.2917922 0.9235506 -1.1914771 -0.12677026 -0.019588985
